pretrained_model.pt (torch, 7247 bytes, 8 tensors)

l1.weight f4 [20, 12]
000000 8c 45 74 3c af a1 4f bc 1a 98 2f be ea 9f 9a 3e
       0.014909159 -0.012672826 -0.17147866 0.3020013
000010 80 bc dc 3d 8a b5 51 be 3b 00 a6 3e 7d 01 e1 3d
       0.10778141 -0.20479408 0.3242205 0.10986612
000020 11 78 e0 bc f2 2b 2d be 27 9d 99 3e 11 3f f7 bc
       -0.027401002 -0.16911295 0.3000271 -0.03018144
000030 0d cb 2f 3e f7 1b c0 3e 00 b4 78 3d 47 c4 6c 3e
       0.17167301 0.37521335 0.060718536 0.23121749
000040 10 05 ba 3c 3c 2c 60 3e 19 cd bb be 41 1c ae 3d
       0.022707492 0.21891874 -0.36679915 0.08501483
000050 24 be 06 3e 68 d9 f6 3d a2 03 02 3e 5c 6a 96 bb
       0.1315847 0.12053186 0.12696698 -0.0045903157
000060 fe c7 75 be 41 1a 2a bc be 79 5b 3e eb af 26 3e
       -0.24002072 -0.010382236 0.2143316 0.16278045
000070 bb b7 12 be da 74 0c be 8e 9b ff bd eb d1 9d 3e
       -0.143279 -0.1371645 -0.124808416 0.30824217
000080 cd ed e3 bd fe ca 8f 3e f4 97 32 bd 93 ff a7 3d
       -0.11129341 0.28084558 -0.043601945 0.08203044
000090 f8 7e 27 3e 27 21 2b be 68 36 ae bd 78 ff c4 bd
       0.16357028 -0.16711865 -0.08506471 -0.09619039
0000a0 96 c6 81 3e 00 0b e8 3c ee 7d 4d bd 34 07 85 3e
       0.25346822 0.028325558 -0.050168924 0.25982058
0000b0 26 1b 04 3b ef 18 43 be 02 1a 50 3c 29 11 30 3e
       0.0020157783 -0.1905248 0.012701513 0.17194046
0000c0 46 45 a4 3d 93 8f 22 3e 45 ad ab bd de 21 a7 bc
       0.08021025 0.15875082 -0.08382658 -0.020401891
0000d0 74 1f 6d be 4c 46 6e 3e a3 53 18 be 5f 08 91 3e
       -0.2315653 0.23269004 -0.14875655 0.283267
0000e0 2b 5b c7 bd 20 23 da 3c f3 bb 91 3e 83 d1 95 3e
       -0.09734186 0.026628077 0.28463706 0.29261407
0000f0 7f 99 1f be f0 b5 35 bc 43 56 04 3e a9 18 25 be
       -0.15585898 -0.011090741 0.12923531 -0.16122688
000100 58 ce 30 bd ec 2a b4 bd 93 74 3c be 18 e2 ad 3d
       -0.043165535 -0.08797249 -0.18403845 0.084903896
000110 14 57 c6 3e 7b 07 88 bd 98 70 ba bd 08 30 12 bd
       0.3873831 -0.06642052 -0.09103507 -0.035690337
000120 00 99 0a 3e 01 7c 05 3e 1d ae 22 3e dc 6b bd bd
       0.13534927 0.13035585 0.15886731 -0.09249088
000130 ca 7e cf bd 50 84 c1 3c 3c b4 0e be 21 a3 0c 3d
       -0.10131605 0.023622662 -0.13935941 0.03433526
000140 b6 1c 54 3e c1 ad 29 3e 7e 1d 00 bd f6 30 cb bd
       0.20714077 0.16570188 -0.031278126 -0.09921448
000150 37 38 0c be d3 c7 57 3e 91 79 40 3c 95 d1 0a 3e
       -0.1369332 0.2107232 0.011747734 0.13556512
000160 f0 07 ce bd b4 95 30 be 9a 11 68 be c3 72 9d be
       -0.10060108 -0.17244607 -0.22662964 -0.3075162
000170 7a 7a 27 3f 2a 49 54 be a7 29 56 3c 99 8f ac 3d
       0.6542126 -0.20731035 0.013071454 0.084258266
000180 32 c6 a8 3e 26 7a db bd fc f9 23 3e 5d 14 4b be
       0.3296371 -0.10716657 0.1601333 -0.19831987
000190 e8 f2 87 3e f6 f4 74 be 17 10 08 be 9d 95 7e 3e
       0.2655251 -0.2392157 -0.13287388 0.2486176
0001a0 3e 1c bc 3d 1f 39 c8 3d 3d 50 a4 3e 94 fa d4 3d
       0.09185074 0.0977652 0.32092467 0.103993565
0001b0 12 b9 6b 3e 9d 71 03 be a4 d2 d4 3c 3d d5 ad 3d
       0.23019817 -0.12836309 0.025979348 0.084879376
0001c0 3e 69 8b 3e 5c 09 ac 3d 5a 68 06 3f 3e 93 5d bd
       0.2722873 0.08400223 0.5250298 -0.0540955
0001d0 b1 4d 9f be ab 8b 63 3d 35 68 3b be f2 82 11 3e
       -0.3111396 0.05555312 -0.1830147 0.14210108
0001e0 0d 18 d0 3d 35 3e 1d 3e 49 67 37 3e cc 4b b5 bd
       0.10160837 0.15355761 0.17910494 -0.08852348
0001f0 d8 11 41 3e 08 8b 89 be 81 b9 ec 3e db 8c 22 bd
       0.18854463 -0.26863885 0.46235278 -0.03968511
000200 60 1b 89 3e 83 e2 48 be ae 94 91 ba 8c 1e d9 3e
       0.26778698 -0.19617657 -0.0011106932 0.42406118
000210 70 9a 21 3d dd 76 22 be 75 bd 68 3e 23 2a 1c 3e
       0.039453924 -0.15865655 0.22728522 0.15250449
000220 7c 83 0f 3e 6e 8f 1f 3e b3 6a a2 3b 07 b3 35 bd
       0.14015001 0.15582058 0.004956567 -0.044360187
000230 51 7b 4a 3e 53 b3 e7 3d df d0 a0 3e 73 b6 62 3e
       0.19773604 0.113135 0.31409356 0.22139911
000240 34 65 3f 3c 41 ed 0a be 28 b4 fd bd 94 60 2c 3e
       0.011681844 -0.13567068 -0.12387878 0.16833717
000250 ee 80 49 3e 58 54 31 3d bb 30 d6 3b 3e ce 48 be
       0.19678089 0.043293327 0.006536571 -0.19609925
000260 35 5d b5 3e f2 51 d0 3e 8b be ee 3c 11 7c 09 bd
       0.35422674 0.4068752 0.029143592 -0.033565585
000270 53 cd d7 bd cd 97 7d 3e f5 20 f3 3d 84 6f bd bb
       -0.10537209 0.24764939 0.118715204 -0.005781116
000280 84 00 1a 3e 14 4b 1c be 65 60 75 3e 75 ef 24 3e
       0.15039259 -0.15263015 0.23962553 0.1610697
000290 73 b9 86 3d dd 05 ab 3e 42 09 a6 bc 24 9f 75 3e
       0.065783404 0.3340291 -0.020268086 0.23986489
0002a0 5e 6d aa bd 6d 51 77 3e 24 76 bf 3d cd 8d 31 3e
       -0.083216414 0.24152155 0.093487054 0.17339249
0002b0 20 38 5b 3e 88 12 42 3d 85 a1 8f 3e c1 7c 5e be
       0.21408129 0.047380954 0.28052917 -0.21727277
0002c0 4b ca 35 bd f7 77 6f be e2 ba 64 bd 15 51 5a be
       -0.044382375 -0.23385607 -0.055842288 -0.21319993
0002d0 80 98 17 be 31 71 c7 3e ca 15 f3 3d 9b 89 0d be
       -0.14804268 0.38953546 0.1186939 -0.13822024
0002e0 0e 1b 04 3e 60 25 d2 3c b3 64 4a be 9b 8f bc 3e
       0.12900946 0.025652587 -0.19764976 0.36828312
0002f0 40 be cb 3d 3e 52 64 3e 4a 13 9f 3d 15 d3 2c be
       0.09948397 0.22296998 0.07767351 -0.16877396
000300 90 a3 16 3d 8c e0 06 be 61 88 1b be 8c f6 34 be
       0.03677708 -0.13171595 -0.15188743 -0.17672175
000310 2e 15 86 3e db 48 81 be 39 02 5d be 64 11 96 be
       0.26188034 -0.25250897 -0.21582879 -0.29310143
000320 b2 26 39 3e 99 1c fa 3c 2c 0c 95 3d 7b e6 39 3e
       0.18081167 0.030531215 0.07277712 0.18154328
000330 2e 6b 24 be 39 00 4e 3e 38 10 22 be 67 24 49 bd
       -0.16056511 0.20117272 -0.158265 -0.04910698
000340 38 97 6f be 22 c9 15 be 65 68 e6 3c 4a 12 ad bd
       -0.23397529 -0.14627507 0.028125951 -0.08450754
000350 e9 96 85 3e a1 c4 36 be 48 d3 41 bd b5 7f 58 be
       0.26091698 -0.17848445 -0.047320634 -0.21142466
000360 83 e9 78 3e ca fe 5b be 25 cd e0 bd 1e d8 15 be
       0.24307828 -0.21483913 -0.10976628 -0.14633223
000370 09 65 16 be 26 17 59 be 6a 90 a4 be 06 6a 88 3d
       -0.1468698 -0.21200237 -0.3214143 0.06660847
000380 db 53 a9 3e 7e 6e 07 3e fe dd 16 bd aa f6 2d 3e
       0.3307179 0.13225743 -0.036832802 0.16988626
000390 be ce 7f be 03 7a 16 be 9b 2a 6d be 01 b6 a2 3d
       -0.2498121 -0.14694981 -0.23160784 0.07944871
0003a0 2c f4 23 bd 8a a8 ec bd 5e 7c 02 3d f0 3d 14 bd
       -0.040027782 -0.11555584 0.031856887 -0.03619188
0003b0 4c 58 a6 be c0 51 2e 3e 86 8d a8 be a2 d5 7e be
       -0.3248924 0.17023373 -0.32920474 -0.24886182

l1.bias f4 [20]
000000 2f e0 48 3e 09 30 ad 3d dd d1 c0 3d 4f 17 9d 3e
       0.19616769 0.084564276 0.09415028 0.30681846
000010 af c3 fc 3d 50 62 56 3e 67 04 cf 3d 18 e8 b2 3d
       0.12342011 0.2093594 0.101082616 0.087356746
000020 3c 46 c1 3d ec 32 dc 3c 09 d1 71 3d 43 70 4a be
       0.09437224 0.02687975 0.059037242 -0.19769387
000030 84 ff 82 3e 1b c3 55 3e 80 d0 e2 3d b9 59 10 3e
       0.25585568 0.20875208 0.110749245 0.14096726
000040 be 27 8b be d3 1f 7c be 2f 81 96 3e 6e d2 99 3d
       -0.27178758 -0.24621515 0.29395434 0.075108394

lin.weight f4 [20, 20]
000000 d1 a8 11 be 26 7d b0 3e a4 17 49 3e 4e f8 75 3e
       -0.14224555 0.3447048 0.19637924 0.24020502
000010 49 c7 3f 3e 55 5a 92 3d 07 d3 55 3e 80 c2 07 be
       0.18728365 0.07146136 0.20881282 -0.1325779
000020 0f 45 1a 3e af ba a6 bd 9f 6a d1 be 22 74 b1 be
       0.15065406 -0.08141076 -0.40901658 -0.34658915
000030 39 d6 56 3d b9 08 6a bd f7 06 50 3d 23 f8 d1 3d
       0.052450392 -0.057137225 0.050787892 0.102524064
000040 80 44 74 be be e8 d8 3c c0 75 fc 3d 00 1d 5a 3e
       -0.23854256 0.026478168 0.123271465 0.21300125
000050 f6 52 34 3e 12 2e 6e 3e 28 59 e2 bd 24 6d 0d be
       0.17609772 0.23259762 -0.110521615 -0.13811165
000060 0f 79 00 3e 67 e6 c7 3d 07 a1 18 3e 87 c3 93 bd
       0.1254618 0.09760743 0.14905177 -0.07215028
000070 1a 8e 10 be 01 89 ca bd 6c eb 45 be 48 ae 6e be
       -0.14116707 -0.09889413 -0.19328088 -0.2330867
000080 c7 a5 20 be 43 02 c2 bd c6 8c 37 3e 87 f7 6a bd
       -0.15688239 -0.09473088 0.17924795 -0.057364967
000090 0b 8c 09 3e 13 5a 30 3e 89 29 11 be 53 87 c5 3d
       0.13432328 0.1722186 -0.14176 0.09644952
0000a0 df b8 18 3d fc 37 1c bd 76 4d 15 3d fe 23 7c be
       0.03728568 -0.03813933 0.036450826 -0.24623105
0000b0 a4 99 34 3e c5 b7 51 be 0e ae 3f 3e b3 74 1a be
       0.17636734 -0.20480259 0.1871874 -0.1508358
0000c0 f9 2a 20 3e 30 b3 18 3c 71 fd 9d 3d ca 00 43 be
       0.15641393 0.009320065 0.07714356 -0.1904327
0000d0 23 e9 7f be a7 d7 4e be b4 d5 79 be a4 28 0d 3e
       -0.24991278 -0.20199452 -0.24397928 0.13785034
0000e0 86 cc c0 bd 01 22 23 be 41 e8 16 bd 93 97 1a 3d
       -0.0941401 -0.1593094 -0.03684259 0.03774221
0000f0 44 7c 95 3d c5 9f 3b 3e 73 48 89 be 38 11 8d 3c
       0.072990924 0.18322666 -0.26813087 0.017220125
000100 a0 7f 64 3e 9e ea e6 bd 39 6b 3a 3d 6e df 33 3e
       0.2231431 -0.112752184 0.04551241 0.175657
000110 60 ad 85 3e 8b c7 2c 3e d6 3c 2d 3e cb 0c 44 3e
       0.26108837 0.16872995 0.16917738 0.19145505
000120 42 ed 15 be 3d 97 73 3c d3 d1 58 be ad ca 57 be
       -0.14641288 0.014867601 -0.21173792 -0.21073408
000130 e2 a6 59 bd f5 60 c7 3d de b5 6b 3e 64 ea 1c be
       -0.053137667 0.0973529 0.23018596 -0.15323788
000140 5a a1 ce 3d 45 bb 10 be e4 92 49 be 86 9a e6 3d
       0.10089369 -0.14133938 -0.1968494 0.11259942
000150 1d 17 88 3d f7 60 4b bc 07 dc aa 3d e3 74 fc 3d
       0.066450335 -0.012413255 0.08342748 0.12326982
000160 71 d9 94 3e 2c 92 bf bd f1 ba 73 3e 69 e6 5c 3e
       0.29072145 -0.09354052 0.23801781 0.2157227
000170 15 26 45 3e 15 3f 97 3b b1 44 b0 3b 75 f6 9c be
       0.19252808 0.0046156743 0.0053792824 -0.30656782
000180 39 df fc 3c 11 f1 f7 bd c1 42 83 3e a4 33 c0 bd
       0.03086816 -0.12106527 0.25636867 -0.0938485
000190 c5 34 de bd 3a ad 19 3e 92 1a 13 3e 8a 7f 29 3e
       -0.10849909 0.15007487 0.14365605 0.16552559
0001a0 f7 7c 28 be 42 70 30 be d5 67 3b 3c 45 1c ca be
       -0.1645392 -0.17230323 0.01143833 -0.39474693
0001b0 48 b0 cb bd 6a b5 6d 3c c9 dc 45 bb fe 2f 22 be
       -0.09945732 0.0145085845 -0.0030191413 -0.1583862
0001c0 4f 50 df bd 49 dd 2a be 24 19 ae bd 70 e7 8d bd
       -0.109039895 -0.16685976 -0.08500889 -0.06928909
0001d0 a5 b7 b2 bd 88 fb 07 3d b0 2e 3f bd 96 f2 4f be
       -0.08726434 0.033198863 -0.046675384 -0.20307383
0001e0 9d 50 76 3e 80 68 1b be 70 e1 19 be d0 1c 01 3e
       0.24054189 -0.15176582 -0.15027404 0.12608647
0001f0 66 ff 2c 3c 2a e8 7d 3e 74 9f 63 bd c9 2e c8 3e
       0.010558939 0.24795595 -0.05557199 0.39098194
000200 35 24 92 3d bb 1a db bc 8a d7 9b 3d 3a b8 71 3e
       0.07135812 -0.026746145 0.0760947 0.23605433
000210 6a 07 55 3e dd f5 3a be e8 05 4d bc 41 e3 b1 3d
       0.2080361 -0.18257852 -0.012513615 0.08685923
000220 da 58 36 3e ca 52 9a bd f5 75 80 3e 29 27 ed bc
       0.17807332 -0.07535322 0.25089994 -0.028949337
000230 5c 0e 9d bd 2a c6 1d bd 3d d1 2a bd 0c 80 23 3e
       -0.076687545 -0.038519062 -0.04170345 0.15966815
000240 44 92 1a bc 1f 67 6d be 87 f6 91 be 05 2f c0 3d
       -0.0094342865 -0.23183869 -0.28508398 0.09383968
000250 44 b5 e4 3d a0 a0 50 3c 94 d5 15 bc 78 04 d9 bc
       0.11167386 0.0127336085 -0.009145159 -0.026491389
000260 e4 55 b5 3b 61 1c d0 3d 52 ab f2 3d 31 4b 2b bd
       0.0055339206 0.10161663 0.11849083 -0.041819755
000270 73 e0 18 3e ea 26 64 3e 87 c6 e2 3d dd af 03 be
       0.1492937 0.2228047 0.11073022 -0.12860055
000280 2d 5b b4 bd 9c 56 2f 3d 0d 18 c1 bc df 08 18 3e
       -0.08806453 0.042807207 -0.023571039 0.14847134
000290 ab 2c 15 3e 11 20 f7 3d ab d7 b9 3d 3e f7 03 3e
       0.1456782 0.12066663 0.090743385 0.12887284
0002a0 d2 80 05 be ef 71 0a 3d 29 00 b1 be 07 2d 47 3d
       -0.13037422 0.03380006 -0.34570435 0.048626926
0002b0 de 85 b7 bd 41 30 81 3d 43 23 32 be 8d 11 2c 3e
       -0.0896108 0.06308032 -0.17396264 0.1680357
0002c0 fd 6f 39 be 71 e5 43 3e c9 d1 80 3e be ee 64 be
       -0.18109126 0.19130494 0.25160053 -0.22356698
0002d0 1d a3 dc bd 32 bd 8d be 09 53 19 be 83 ab b7 3d
       -0.10773299 -0.27683407 -0.14973082 0.0896826
0002e0 a6 d9 82 3d 5a 88 80 bd c7 bd 31 bd f2 0b 4c be
       0.063891694 -0.06276007 -0.043393876 -0.19926432
0002f0 f0 77 10 3d d5 de 16 3e 79 73 3f 3d 22 b3 7b bd
       0.03527063 0.14733441 0.046740983 -0.06145013
000300 5c 34 8a bc 0d 75 49 3c 51 6f 8b 3d fd fc 9c be
       -0.01687067 0.0122959735 0.06808341 -0.30661765
000310 70 8e f4 bd 9d f0 f1 bd b5 2b fd bd 73 6b 4b be
       -0.1194123 -0.118134715 -0.12361852 -0.19865207
000320 df a0 b9 3d 1c 06 13 3e d4 7a 4d 3e 6c 5f 02 be
       0.09063887 0.143578 0.20066386 -0.12731713
000330 d8 dd 19 be 9c 12 40 3d a0 a2 1a be f2 e1 ed be
       -0.15026033 0.046892747 -0.15101099 -0.46461445
000340 bf d3 c5 bd 85 1c de bd 01 6b c4 3e 9e f9 3c be
       -0.09659528 -0.108452834 0.38362888 -0.18454596
000350 85 07 5a be af 42 ea bd ab 9d 55 3d a6 de d9 bc
       -0.21291931 -0.114385 0.052152317 -0.026595425
000360 f0 0d 30 be 2c 38 cf bc 83 68 06 3e 93 c2 b5 bc
       -0.17192817 -0.02529534 0.13125806 -0.022187507
000370 4a aa 56 3e 4e 83 8e 3e 1f f1 c2 3d 41 29 5d 3e
       0.20963398 0.27834553 0.095186464 0.21597768
000380 23 3b 83 3e 0c c1 19 be b4 c3 2f 3e 5c 61 26 3d
       0.25631055 -0.15015048 0.17164499 0.040620193
000390 24 3c 68 3e ce d8 88 3c d5 28 4b be 59 48 38 3e
       0.22679192 0.016704943 -0.19839795 0.17996348
0003a0 d8 b7 21 bd 3c a6 09 3e 38 ec ad bd 6a bb 4e 3e
       -0.039481968 0.1344232 -0.08492321 0.2018868
0003b0 25 3c 2f 3e e1 ea c5 bd 1c 8b 4d 3e 33 9b b1 bd
       0.17112787 -0.0966394 0.20072597 -0.0867218
0003c0 e0 02 bf 3d c7 82 a0 be a2 62 7a 3a df 63 60 3e
       0.0932672 -0.31349775 0.00095514406 0.21913098
0003d0 08 37 70 be 9d 48 1f 3e bd 0f 4b 3e 8f 42 ae 3d
       -0.23458493 0.15555044 0.19830222 0.08508789
0003e0 7f 2b 79 3d 20 91 61 3b 4e 38 7f 3c a9 78 53 3e
       0.060832497 0.0034418777 0.015577389 0.20651497
0003f0 4f 55 9f 3e b4 ec 67 3e 1b 02 7a 3e 4d c3 ed bd
       0.31119773 0.22648889 0.24414866 -0.11609516

lin.bias f4 [20]
000000 f3 6d b8 bd d8 12 1f be 93 65 4c 3d 69 87 da 3c
       -0.09005346 -0.15534532 0.049901556 0.026675897
000010 2d a4 9c 3c b2 74 d3 3d ab ce 76 3e 4f 67 4e be
       0.019121254 0.10324992 0.24102275 -0.20156597
000020 4d 62 58 3e bf 68 27 bc ed c5 54 bd 0e 5b 3a 3e
       0.21131249 -0.0102178445 -0.05194657 0.18198797
000030 05 f9 06 3e ee 30 42 3d ba ff 36 be 2f 10 3a 3e
       0.13180931 0.047409944 -0.1787099 0.18170236
000040 89 9f 2c be fb 1d 4b 3e 77 bc be bd 4b 8b 97 bc
       -0.16857733 0.19835655 -0.093132906 -0.018499037

lin2.weight f4 [20, 20]
000000 91 1d 88 bd ab 49 1d 3d e9 df 0a 3e 93 c8 42 be
       -0.06646264 0.038400333 0.13561977 -0.19021825
000010 b4 2a de 3d e4 22 ce bc 26 af 80 bd d0 6b ac bc
       0.10847989 -0.025163122 -0.06283407 -0.021047503
000020 bc b9 4d be 1a 37 b7 3d 3d 20 74 be 81 96 65 be
       -0.20090383 0.08946057 -0.23840423 -0.22420694
000030 76 a0 e0 bd 38 e1 ac 3c 81 40 e4 3c e1 e8 88 3e
       -0.109681055 0.021103486 0.02786279 0.26740173
000040 e6 70 df 3e ec 6c 8a 3d 52 aa 16 3e 08 ac cd bd
       0.43640822 0.067590564 0.1471341 -0.10042578
000050 c9 8a 39 be bd cd a6 bd 69 0c b8 bd 5b 1d 84 be
       -0.18119349 -0.0814471 -0.08986742 -0.25803646
000060 64 c3 f1 bb 93 ae 0a 3d 01 13 a2 bd 74 22 26 be
       -0.0073780287 0.033857893 -0.07913781 -0.1622408
000070 03 fb 40 bd 2b a6 ac bd a2 09 89 3d fa 4c 20 be
       -0.047114383 -0.084301315 0.066912904 -0.15654364
000080 1f bb 03 3e 0f f0 68 3e d3 81 14 3e c9 8b 8e 3e
       0.1286435 0.22747825 0.14502649 0.27841023
000090 d1 6d f3 3e ab 76 cf 3e aa e4 9b 3d c8 d9 cf bd
       0.4754472 0.40520224 0.076119736 -0.1014896
0000a0 57 d1 86 bd 99 c0 be bd a7 8b 23 b9 c1 88 6e 3e
       -0.06582897 -0.09314079 -0.00015596916 0.23294355
0000b0 0e 6b 9c 3e f0 36 4f be 82 4e fc 3d a0 40 97 bd
       0.30550426 -0.202358 0.12319662 -0.07385373
0000c0 65 1e 2d 3d f4 8c 56 3e 95 40 57 be 10 a0 fa 3d
       0.042265315 0.20952207 -0.2102073 0.12237561
0000d0 b5 7f 82 bd fb 77 bc 3e da 4f 53 be 1d e6 29 3d
       -0.063720144 0.36810288 -0.2063593 0.04147922
0000e0 8f 3a 8b 3e 9a a6 06 be 68 39 22 3e 24 a2 1d 3e
       0.27193114 -0.13149491 0.15842211 0.15393883
0000f0 14 65 35 be 57 d4 36 3e 79 d5 bc 3d d8 44 af 3e
       -0.1771434 0.17854439 0.09220404 0.3423221
000100 33 9a d1 bc 3b 38 0e bd 64 e1 33 bd 10 b7 10 3e
       -0.025586223 -0.034721594 -0.04391612 0.14132333
000110 39 32 a9 be 30 06 74 3e f1 c1 4d be 7e d7 bc 3d
       -0.3304613 0.23830485 -0.20093514 0.092207894
000120 e4 af 69 bd 68 13 46 bd 6f 49 42 bc 82 d9 a7 be
       -0.057052508 -0.04835835 -0.011858328 -0.32783133
000130 ec 46 ae 3e 1e 56 84 bd c5 47 9c 3e bc 5c 5d be
       0.34038484 -0.06461738 0.30523506 -0.21617407
000140 37 97 e9 3c 4d 30 47 3e 55 4a 6b 3e f0 be 58 be
       0.028514488 0.19452019 0.22977574 -0.21166587
000150 3d 05 dd bd e8 1c 3b be 45 5c 65 be a6 f0 b3 3b
       -0.10792015 -0.18272746 -0.2239848 0.005491334
000160 9a 68 30 be b1 c7 86 bc 0a 0f eb 3d 13 f3 ec 3d
       -0.17227402 -0.016452642 0.11477478 0.115698
000170 82 84 17 be 75 5c a0 be 17 78 ba bc 75 26 c8 3c
       -0.14796641 -0.3132054 -0.022762341 0.0244324
000180 4e 57 da be 7c 50 07 be ba 47 a5 3c 21 52 36 3d
       -0.42644733 -0.13214296 0.020175803 0.044511918
000190 85 1d 85 bd 6b 69 89 3e f3 8c 11 be 61 89 44 3d
       -0.06499771 0.2683824 -0.14213924 0.047982577
0001a0 89 e9 8a 3c 61 a8 3a be 7a 7b 88 3d 6a 77 b7 3d
       0.016957061 -0.18228294 0.06664176 0.08958323
0001b0 00 b4 9c 3d 6c 98 06 3e a0 81 a5 ba e4 f9 16 3d
       0.0765152 0.13144082 -0.0012627132 0.036859408
0001c0 c7 ca 21 be ca b9 ac be 5c 88 b5 bd 17 3e c8 bd
       -0.1580001 -0.33735496 -0.08863899 -0.09777468
0001d0 16 61 92 3e 3d 55 41 3d 5d c6 64 ba 2e 28 0d 3e
       0.28589696 0.04720043 -0.0008727068 0.13784859
0001e0 0b 04 0a 3e 3c 14 3f 3e 03 b3 02 3d 0b fb 01 bd
       0.13478105 0.18660063 0.031909 -0.031733554
0001f0 14 8a 00 3e a8 09 23 3d 29 76 37 bc 1f a8 7e 3d
       0.12552673 0.03980413 -0.011197605 0.06217205
000200 c0 b2 01 be 19 c5 21 3e 96 6b 27 3e ca 50 b6 bd
       -0.12665844 0.15797843 0.16349635 -0.08902128
000210 dd 67 d4 3d 3d e5 50 3e 6c a5 37 bd 37 c9 38 3d
       0.10371373 0.20399947 -0.044835493 0.04511377
000220 00 1e f0 be 24 61 7b be be 67 ad 3d 2b 87 86 be
       -0.46897888 -0.24548775 0.08467053 -0.26275
000230 ee 2d 1d bd 64 2d 27 3e 18 6c b1 bb b3 df 83 be
       -0.03837388 0.16325909 -0.005414497 -0.25756606
000240 ab d1 af be d6 24 01 3e ab f2 3d bc d1 03 6f 3d
       -0.3433965 0.12611708 -0.011593501 0.05835325
000250 1f 2d ad 3e 82 15 26 be 21 f3 3c 3c 60 90 a5 bd
       0.33823487 -0.16219142 0.011532576 -0.08084178
000260 9b 77 03 3e 91 e6 7f be 75 19 a9 bd 11 21 65 bd
       0.12838595 -0.24990298 -0.08256809 -0.055939738
000270 87 03 0e 3e 07 fb b5 3e 8f 0a 20 3d dc 92 fd 3d
       0.13868533 0.3554308 0.03907257 0.12381527
000280 b1 f0 01 be 59 ed 22 bd 17 1a 92 bd fb 2d 4a 3e
       -0.12689473 -0.039777134 -0.071338825 0.19744103
000290 cd 81 4c 3e e1 7c e1 3d f6 be 79 be 92 6d 09 3e
       0.1997139 0.11010147 -0.24389252 0.13420704
0002a0 d7 57 83 3c 63 bf 49 3e 8f 84 cf 3d cb 75 83 be
       0.016033096 0.19701914 0.101327054 -0.25675806
0002b0 43 f6 1d be 32 63 d1 bd 5c 8b af 3d 8e f5 9e 3c
       -0.15425973 -0.10223998 0.085715026 0.019404199
0002c0 57 9e 6a be 35 76 97 3d 07 ab 83 3e 58 44 7d bc
       -0.22911964 0.07395593 0.2571642 -0.015458189
0002d0 a8 8a 57 3e 20 e1 b7 bc f2 e3 ac 3d cf a1 e1 bd
       0.21048987 -0.022446215 0.084419146 -0.11017191
0002e0 66 20 86 bc d4 b8 00 3e fe 2c 3c be c6 6d 15 3d
       -0.01637287 0.12570506 -0.18376538 0.03648164
0002f0 e7 f1 d3 bd e1 74 90 3d 49 7a 86 3c 30 0f e4 3d
       -0.103488736 0.07053543 0.016415732 0.11135709
000300 92 b4 d2 bd 98 60 e5 3b 5d 80 2a 3e b1 fc 73 be
       -0.10288347 0.0070000403 0.16650529 -0.23826863
000310 0e b4 7f be c4 80 5e 3c 00 96 74 bc e3 2f 7e be
       -0.24971029 0.013580505 -0.014928341 -0.24822955
000320 72 8e 94 bd 4e a4 aa 3c cd fb ef 3c 13 ac 56 3e
       -0.07253732 0.0208303 0.029294873 0.20964079
000330 17 d4 04 be 54 ad 0c 3d e1 bc d2 bb c9 d9 98 bd
       -0.12971531 0.034344986 -0.0064312075 -0.07463414
000340 a1 89 e1 bd b7 d4 19 3e 65 02 7d 3e bc 30 35 3e
       -0.11012579 0.1502255 0.24707945 0.17694372
000350 85 44 7e be d7 2e 01 3e b2 3f f6 bd 39 05 b7 be
       -0.24830826 0.12615524 -0.12023868 -0.35746172
000360 79 04 e5 be 6f ab 42 be c9 71 f1 bd b2 94 a8 bd
       -0.44729975 -0.19010709 -0.11789281 -0.082314864
000370 4b 3d a3 3e 0a e8 d2 3d c4 07 00 be e6 1b 73 be
       0.318827 0.10298164 -0.12502962 -0.23741111
000380 62 67 0a 3d 66 35 f6 bd 31 0c 22 3e f3 80 20 3e
       0.03379 -0.12021904 0.15824963 0.1567419
000390 44 7a a1 3e c7 a0 5d be 58 60 b8 bc 48 2d 64 3e
       0.31538594 -0.21643363 -0.022506878 0.22282898
0003a0 b2 cd cf 3d ae c5 86 bd 4d 06 d2 3d e9 30 47 be
       0.10146655 -0.06580673 0.10255108 -0.19452251
0003b0 4a 65 e9 3e fa f4 d8 3b 07 c7 30 be 47 84 84 3d
       0.4558509 0.0066210004 -0.17263423 0.064705424
0003c0 55 d0 5b bd 27 4e eb 3c 5f ff cd bd 47 d1 25 be
       -0.053665478 0.02872379 -0.10058474 -0.16193114
0003d0 de 83 e5 3c ed a8 26 3e 1e 2f 3d bc bc 18 93 3d
       0.02801698 0.16275378 -0.011546878 0.07182452
0003e0 66 4b 77 be 2e 5a 48 be 00 05 49 3e 61 45 b0 3b
       -0.24149856 -0.19565651 0.19630814 0.0053793644
0003f0 9a 25 4c bd 19 c8 d0 3d 56 95 3f bc 92 67 56 3e
       -0.049840547 0.101944156 -0.011693319 0.20937946

lin2.bias f4 [20]
000000 51 70 d4 3b 56 7b 4e bd bc 72 bc 3c 0d 3a 70 be
       0.0064831157 -0.05041059 0.023003928 -0.23459645
000010 ad ce 37 be 1c 28 89 bd e3 eb a6 bd 34 94 18 bd
       -0.17949934 -0.066971034 -0.081504606 -0.037250713
000020 b9 be 4b be 7d 80 08 3d a1 f7 cb 3d 6c c1 2b bd
       -0.19896974 0.03332566 0.09959341 -0.04193251
000030 9c 71 86 3d 71 ce ef bd 2e 2e 53 be fd 2d a2 bd
       0.06564638 -0.117092974 -0.20623085 -0.07918928
000040 44 eb 6a 3d f1 00 0d 3e de a0 28 be bd 66 be 3d
       0.057353273 0.1376989 -0.16467616 0.092969395

l2.weight f4 [4, 20]
000000 ba 07 4b bd 8e 77 80 bc 54 7f 8b 3e 2c 62 61 be
       -0.049567915 -0.015682008 0.2724558 -0.22010106
000010 eb 72 62 be 26 fe a1 be 26 1d 38 3e cb a6 88 be
       -0.2211415 -0.31639212 0.17979869 -0.26689753
000020 3e 48 33 3e 1b de 9a bd 50 94 9a 3d f3 cd 05 be
       0.17508027 -0.075618945 0.075478196 -0.13066845
000030 64 cc 0b 3d 3c 00 ee 3d 60 a1 60 be 9d fe 15 3e
       0.03413047 0.116211385 -0.2193656 0.14647909
000040 5c 83 8f be e6 1e 57 3d 40 08 6d be 12 03 a0 3e
       -0.28029907 0.0525197 -0.23147678 0.31252342
000050 f1 31 97 be 49 76 86 be 75 a2 7a bc 9c 1f b5 be
       -0.2953029 -0.2626212 -0.015297522 -0.3537568
000060 80 31 2d 3d e9 d6 a2 bd 8c e8 cc bc c7 0d 14 3e
       0.042283535 -0.07951147 -0.02501323 0.1445838
000070 8f e6 eb bc 9c 79 ec 3c 77 68 e1 3d 89 bb 6b 3e
       -0.028796462 0.028866582 0.11006253 0.23020758
000080 84 fa 56 be 3f b2 8a be 02 3d bb bd 0f ff 2d be
       -0.20994002 -0.27089116 -0.09142496 -0.16991828
000090 f2 11 4c 3e 90 3d b2 3d 50 ab 7a be b1 29 a4 3b
       0.1992872 0.08703148 -0.24479413 0.005009853
0000a0 56 ab 91 3c 5a 72 c8 3d 9b 0f 7c 3e 15 ed 42 3d
       0.017781895 0.09787436 0.24615328 0.04758938
0000b0 a4 b2 14 be 34 bf fc 3c 81 d2 96 be 69 e8 ac bc
       -0.14521271 0.030852892 -0.29457477 -0.021106916
0000c0 0e d2 72 be 3a ff 62 be 0c 81 0a be aa 19 e8 3d
       -0.23712942 -0.22167674 -0.1352579 0.1133302
0000d0 b0 c2 d5 bc 68 16 1d 3e 39 30 24 be 80 cd ca bd
       -0.02609381 0.15340579 -0.1603402 -0.09902477
0000e0 e5 ee 11 3d cd f2 3c bd e0 4b 66 3d c9 76 84 3d
       0.03562822 -0.04612999 0.056224704 0.06467969
0000f0 0b 7c 46 be 28 07 47 be 57 12 0e 3e 6a b1 3e 3e
       -0.19383256 -0.19436324 0.13874184 0.18622366
000100 94 3c b6 bd f8 ae ce 3d 06 41 07 be 54 4d 19 be
       -0.08898273 0.100919664 -0.13208398 -0.14970905
000110 68 f3 38 bd 25 4a 06 be 5a e2 39 3e ea 2d b5 3d
       -0.045154005 -0.13114221 0.18152753 0.08846648
000120 06 8e 2a be 1e 75 40 3d ef 69 d2 3d 73 18 8c 3e
       -0.1665574 0.04698669 0.102741115 0.27362403
000130 c5 ae 85 3d 14 1b 9e be 4f e6 a9 3d 21 af 43 3e
       0.06527475 -0.30880034 0.08295881 0.19109775

l2.bias f4 [4]
000000 63 bf 07 3e eb 39 12 be 0d 27 ec bd 6f f8 d6 3d
       0.13256602 -0.14279906 -0.11530886 0.10496604
